web_app/final_models/BOW-model.pt (torch, 46759 bytes, 2 tensors)

linear.weight f4 [2, 5705]
0.4435454 -0.0015845157 0.80101794 -0.7095448 1.763154 1.1032476 -1.1286757 -0.14931943
-0.54438967 -0.84635043 -1.4077348 1.6904435 7.1532044 -3.8789496 6.890603 4.7692614
-1.1529027 -3.0496047 -0.2658798 -4.693425 -7.4633813 2.566008 0.5332626 -0.9561116
1.3295258 7.900222 -6.759369 -8.168718 -2.5661354 2.7397008 -1.0917747 5.9042177
5.32127 -0.8458697 -3.7401738 0.7391402 1.0141336 -3.618596 -2.186335 -3.6741436
-2.0783005 -3.2812018 6.0180883 -0.023071023 6.757125 -7.353824 -1.7811996 -7.7162957
-1.4999173 -5.847158 -1.9490774 2.5137777 5.723444 -3.1910367 -6.576887 0.94440407
1.749698 -0.85502875 2.4261286 4.5295086 0.0803387 -0.8305624 3.716097 -2.3278198
-3.3345957 5.590367 3.1747298 -5.8207316 2.482111 3.2353327 7.8535633 -2.5726583
-0.29368728 -6.3880086 -2.3803322 -3.5426118 2.5242078 4.9631343 3.0717213 -1.4803736
-0.09452297 -0.8460079 -4.476493 -2.9246588 -5.2813916 -6.2733674 -3.341174 3.4620204
-4.3299875 2.8202026 -2.5188005 0.5241343 0.5343514 6.3488398 3.0342698 0.12807311
1.5919753 -1.2576859 5.8388176 -5.0425816 4.983234 0.6241702 3.3646781 -0.7165512
-1.2044598 -6.5967913 -4.352057 -0.6770996 1.6628553 -5.4979873 0.76281613 -4.855569
-3.2803879 -4.5719757 4.365219 7.122396 0.093784586 -0.07792577 -2.2193758 -2.47375
-3.8402896 -4.07186 5.134627 -0.11437023 4.9835954 -3.6755877 -6.9768734 7.622132
5.675536 -5.440658 7.8013716 4.8224072 6.1802716 -1.0080763 -3.2057805 4.738345
-1.5162107 -0.051246 0.39595804 3.051669 8.623385 2.5061178 0.4773728 -2.9488413
2.2342107 -0.87994117 -7.3309083 5.5847645 -0.43603557 -4.2530475 0.12617753 -4.995303
6.2234626 -6.543417 -0.42419925 -5.4134736 -3.6233366 4.835062 0.38772008 0.020193063
7.2883296 2.842481 2.084262 -6.423123 -0.5155587 6.065482 3.808817 1.199995
-0.68525517 7.2989545 0.50645304 -1.7962048 2.5487268 -6.1466823 5.908883 0.55338764
2.8750067 7.505137 3.6894424 -6.0173073 4.5728135 -4.962826 -3.6769667 -5.8836417
-0.3546762 -4.374837 2.1792893 -7.0010204 -4.3375244 1.871735 -7.356979 4.5950794
-2.2542446 -4.9123025 7.420371 -3.2520986 -2.8626575 3.7226696 1.5228338 -0.6350406
-8.540026 -4.0268016 3.7389166 -1.6825461 -1.9090945 -0.8977067 5.267442 -1.028833
-3.7546177 6.6888433 4.3359914 -4.4131927 0.98250526 -0.40869603 -5.4926114 2.7546096
-1.6444236 4.987891 0.5036229 -3.7555454 -0.7762027 3.6241548 -2.2075157 -0.42453003
8.657558 0.20585546 -0.4303354 5.3717527 -0.72606844 -2.6449788 -0.59938025 3.9489756
-2.8724709 0.31778973 -6.3055067 6.7213655 2.418567 8.422333 2.6813116 3.102055
-3.854096 4.9396033 -7.738806 -5.78006 -2.4935462 -2.582609 -5.047711 -1.5353576
-0.8080266 0.7662297 -4.530304 4.882219 6.281802 3.556174 3.834251 3.2996469
00000000: 6218 e33e 86af cfba 830f 4d3f baa4 35bf
00000010: 08af e13f 3837 8d3f 7278 90bf 31e7 18be
00000020: 1f5d 0bbf 6caa 58bf a730 b4bf 7460 d83f
00000030: 0de7 e440 b640 78c0 d27f dc40 ca9d 9840
00000040: 5192 93bf b92c 43c0 6621 88be 8a30 96c0
00000050: 05d4 eec0 7a39 2440 e683 083f bbc3 74bf
00000060: e72d aa3f 9ece fc40 c04c d8c0 12b3 02c1
00000070: 903b 24c0 4257 2f40 46bf 8bbf 5aef bc40
00000080: d847 aa40 eb8a 58bf 025f 6fc0 4b38 3d3f
00000090: 21cf 813f 1497 67c0 eaec 0bc0 2b25 6bc0
000000a0: e002 05c0 36ff 51c0 2e94 c040 71ff bcbc
000000b0: 5e3a d840 8752 ebc0 59fe e3bf e5eb f6c0
000000c0: 4afd bfbf eb1b bbc0 5e7b f9bf bce1 2040
000000d0: 7426 b740 f239 4cc0 dc75 d2c0 77c4 713f
000000e0: 1bf6 df3f 2ae3 5abf b145 1b40 bcf1 9040
000000f0: 9e88 a43d bd9f 54bf 89d4 6d40 00fb 14c0
00000100: 046a 55c0 49e4 b240 c62e 4b40 6f43 bac0
00000110: e8da 1e40 b10f 4f40 6450 fb40 6fa6 24c0
00000120: 2e5e 96be 916a ccc0 5d57 18c0 27ba 62c0
00000130: 9f8c 2140 ffd1 9e40 1597 4440 e27c bdbf
00000140: 4295 c1bd f993 58bf 6e3f 8fc0 9c2d 3bc0
00000150: 2901 a9c0 6dbf c8c0 cbd5 55c0 be91 5d40
00000160: 428f 8ac0 337e 3440 0734 21c0 aa2d 063f
00000170: 41cb 083f b229 cb40 7a31 4240 9925 033e
00000180: d9c5 cb3f dafb a0bf 98d7 ba40 d45c a1c0
00000190: a776 9f40 9ec9 1f3f e356 5740 e66f 37bf
000001a0: bd2b 9abf ea18 d3c0 0d44 8bc0 6656 2dbf
000001b0: 71d8 d43f 83ef afc0 eb47 433f d260 9bc0
000001c0: e0f1 51c0 a04d 92c0 e0af 8b40 abea e340
000001d0: 2212 c03d 8c97 9fbd 410a 0ec0 ec51 1ec0
000001e0: 4ec7 75c0 ad4c 82c0 dd4e a440 f03a eabd
000001f0: 9d79 9f40 d43c 6bc0 8c42 dfc0 81e8 f340
00000200: fe9d b540 df19 aec0 d6a4 f940 2951 9a40
00000210: c9c4 c540 a508 81bf 822b 4dc0 86a0 9740
00000220: 3113 c2bf 53e7 51bd 03bb ca3e 8b4e 4340
00000230: 63f9 0941 3c64 2040 356a f43e d1b9 3cc0
00000240: 4ffd 0e40 d343 61bf cd96 eac0 64b6 b240
00000250: 0e40 dfbe f718 88c0 af34 013e 86d9 9fc0
00000260: 9b26 c740 ac63 d1c0 a530 d9be 2d3b adc0
00000270: bfe4 67c0 d4b8 9a40 3f83 c63e ec6b a53c
00000280: ff39 e940 35eb 3540 8c64 0540 398a cdc0
00000290: a8fb 03bf 6e18 c240 a8c3 7340 7099 993f
000002a0: e26c 2fbf 0991 e940 e8a6 013f 0aea e5bf
000002b0: 571e 2340 9fb1 c4c0 9215 bd40 d0aa 0d3f
000002c0: 1c00 3840 152a f040 d31f 6c40 c88d c0c0
000002d0: 7d54 9240 78cf 9ec0 6c53 6bc0 cb46 bcc0
000002e0: 1e98 b5be aafe 8bc0 7a79 0b40 5c08 e0c0
000002f0: 00cd 8ac0 0395 ef3f 5f6c ebc0 e40a 9340
00000300: 8b45 10c0 9531 9dc0 ae73 ed40 6222 50c0
00000310: c835 37c0 3840 6e40 38ec c23f 0592 22bf
00000320: f2a3 08c1 8fdb 80c0 694a 6f40 ac5d d7bf
00000330: 355d f4bf 1bd0 65bf e38e a840 cdb0 83bf
00000340: a84b 70c0 010b d640 71c0 8a40 e038 8dc0
00000350: 7785 7b3f 9b40 d1be 79c3 afc0 864b 3040
00000360: 797c d2bf ce9c 9f40 6eed 003f db5a 70c0
00000370: 38b5 46bf 27f2 6740 f047 0dc0 005c d9be
00000380: 5c85 0a41 c6cb 523e ec54 dcbe 66e5 ab40
00000390: 9fdf 39bf 5547 29c0 fc70 19bf 04bc 7c40
000003a0: 90d6 37c0 56b5 a23e b6c6 c9c0 6d15 d740
000003b0: cdc9 1a40 e0c1 0641 9c9a 2b40 1288 4640
000003c0: 82a9 76c0 3b11 9e40 4ca4 f7c0 40f6 b8c0
000003d0: 4396 1fc0 7749 25c0 d986 a1c0 9986 c4bf
000003e0: d5da 4ebf a127 443f 40f8 90c0 233b 9c40
000003f0: 8604 c940 5b98 6340 5e64 7540 6a2d 5340

linear.bias f4 [2]
-0.094100125 0.08030529
00000000: 91b7 c0bd 1a77 a43d
