web_app/final_models/GRU-model.pt (torch, 985311 bytes, 7 tensors)

embedding.weight f4 [5732, 32]
00000000: 3fbf 04be fb38 fd3a 1a71 4ebd 67e3 2cbd
00000010: 9276 14bf 3d99 47bd f790 253e c617 74bd
00000020: 0ac3 47bf f7a7 57bd 9b18 a73d 66ba dcbd
00000030: bb48 773d 96c8 ad3e 169f 0cbd 011d b83e
00000040: 932f 813e f15e bf3d 40fa 2fbc 8827 a3be
00000050: a98a f0bc d71e f23e 8c0f 233f 4786 03be
00000060: f6d9 c13d 62af 0abd 7850 bd3c a146 d1bd
00000070: 94b8 66bd 71f6 43bd fd47 083e 79e8 98bd
00000080: eacf 413d ace7 ffbd 3ddf f4bc b049 163e
00000090: 8d2f 613c 653d 12be 368a 99bd 754d 643d
000000a0: 5c3f 39bc 3aeb a0be 6e8b d6bc b1e2 b8bc
000000b0: 70d6 4abc 7116 383d 0b66 5ebd abcd d9bd
000000c0: e106 c43d 9b93 923d e2f9 8a3d 49ac 9d3d
000000d0: c2b3 a1bd 98fa 8abe 0b7c fe3d c370 af3d
000000e0: 6aad a63c 65f5 3cbd 2c64 84bc 7db4 a3bd
000000f0: ee77 bd3d 96b2 993d 71e3 46bd a2d0 5bba
00000100: c307 75be 6112 ab3e b744 fd3c 0829 75bd
00000110: 5798 82be 085c d83d 8de1 443e ea3f 83bd
00000120: 2aec 96be 0df8 953e e7d6 213e 525e 6d3e
00000130: 01c3 783d 2521 383e 0d48 a73d 6f6f af3e
00000140: 23ef a43e cc96 4b3e c913 6dbe f0bf 90be
00000150: 09e4 293d 004e fd3e e741 483e 747f e6be
00000160: 8619 843e 687a 4e3c 5d31 b43d b9af 9ebd
00000170: c0e6 4fbe 038c 0bbe 72e8 783e 5f03 da3c
00000180: 5b5a 6fbe dad4 d7bd 89d6 b5be 6eb9 7f3e
00000190: 51d6 6bbe 2031 e0bd fb7a b73e 926c 7fbe
000001a0: 2f86 7dbe e0c2 babd c76a b1bc 7959 293e
000001b0: 673e 0a3e 2ec5 363e bf85 dd3c db30 033d
000001c0: 67ad ed3e 8560 0d3e e983 73bc 4e96 1cbe
000001d0: f09f 1e3e b9be b13e 3e87 663c 79cc d23e
000001e0: 2403 383e 8377 be3d 166f 25be dd65 4fbe
000001f0: 37a6 b33d f431 06be 9d35 33be 803a ca3d
00000200: 18e3 6cbe 16f0 a1bd 313e 753d 51a6 bd3e
00000210: 4254 bc3d 9736 bfbe f443 d13d 5e1f 173e
00000220: 8bb4 5fbe 64f1 2dbe aa1a 29be 732c 903e
00000230: 6cb2 463e 1ad7 e3bc c946 7dbd ec58 053e
00000240: 4f05 813e b697 30be 3c65 0dbe 8fd6 833d
00000250: aa56 40be 59c9 c03d c4ca b23e 07cc c93b
00000260: 0f8d 423e 56a7 393e d53f 94bd 06ba 8e3d
00000270: 2818 8fbd bdba 9b3c 7d35 59be 6cb9 9a3d
00000280: f012 69bd a6a3 b33d c668 c0bd 311e dd3d
00000290: da1d 4ebf cf3d a93d 490c 3a3e 4e15 86be
000002a0: a82d f2be 26de d03d 1c3e 863d 36be 8f3e
000002b0: 3200 b5bc d64d 863f 77e8 f23d 62f9 983e
000002c0: dd05 8b3e e252 6f3e 6922 243e e234 35bf
000002d0: 0d44 a23e f67a 023f 374c b83e e291 843d
000002e0: bca3 cf3e 4e5c 94bc 9488 283f 1a2f cdbc
000002f0: 32a7 d3bd d12a a4bd 0fcd 453e a891 263e
00000300: 6169 6ebe 06cb fc3d 365b c7bd 0ed5 b93e
00000310: 8301 cb3a 6a0d a23d 15c4 073e 3a27 dabd
00000320: 4238 01bf 7c9d 9e3e ff4c 2d3d 8aca 313e
00000330: d10e 84bb 0e03 1cbd feeb cc3d b03e 093f
00000340: be49 173f 098f 963d 6d1c 2dbe 8c7c 85be
00000350: aaf3 0dbe ade0 f43e 87d2 b03d ac99 36be
00000360: 5d84 0d3f 8608 433e 7f5a 3d3e 5d9b e53b
00000370: 500b 25be 1fc5 b2be e396 123e 65fa 443d
00000380: 9a50 903d 8b82 383d e1a7 bf3d ac93 623e
00000390: bdc8 a7bd 8825 093e 036c d83d b4c5 23be
000003a0: 7c94 d9be 29a7 853e 70af 09be bef0 70be
000003b0: 6ae2 18be b0c1 133e 97f8 df3c bddb f33e
000003c0: 4451 f03e c736 733e 071f adbe 61e0 95be
000003d0: e0e3 10be 7bde 063f e05d 263f a7bd 7abe
000003e0: 9184 b53e 3732 7dbe 41a3 483d 58d0 06be
000003f0: 3745 97be 40f4 3dbe b723 5b3e ccd1 bd3d
-0.1296358 0.001931935 -0.05040083 -0.042209055 -0.57993424 -0.048730124 0.16168581 -0.059592985
-0.7803198 -0.052650418 0.0815899 -0.1077774 0.060372096 0.33942097 -0.034331404 0.35959628
0.2523161 0.093442805 -0.010740817 -0.31866097 -0.029362993 0.47289154 0.636956 -0.12844191
0.09465401 -0.033858664 0.02310966 -0.102185495 -0.05632837 -0.047842447 0.13308711 -0.07466216
0.047317423 -0.1249536 -0.029891605 0.14676547 0.013744247 -0.14281233 -0.07497065 0.05573793
-0.01130661 -0.31429464 -0.026189532 -0.022569032 -0.012380227 0.044943277 -0.054296535 -0.10634931
0.095716245 0.0715706 0.067859426 0.076988764 -0.07895614 -0.27144313 0.12426003 0.085664295
0.020346362 -0.046132464 -0.016161047 -0.0799341 0.092513904 0.07504766 -0.04855675 -0.0008385276
-0.23928742 0.3341246 0.030916555 -0.059853584 -0.2550685 0.105644286 0.19226666 -0.06408675
-0.29477054 0.2929081 0.15804635 0.23180512 0.060732845 0.17981394 0.081680395 0.34264705
0.32213697 0.19881743 -0.23152079 -0.28271437 0.041477237 0.49473572 0.1955639 -0.45019114
0.25800723 0.012602426 0.08798478 -0.0774836 -0.20302868 -0.13627629 0.24307421 0.026612936
-0.23374312 -0.10538645 -0.3551524 0.2497308 -0.23030974 -0.1094687 0.35836014 -0.2494376
-0.24758218 -0.09119201 -0.02165736 0.16538037 0.13500367 0.17848656 0.027041314 0.032029014
0.46421358 0.1380635 -0.014862993 -0.15291712 0.15490699 0.34715822 0.01407033 0.41171625
0.17969948 0.09300139 -0.16155657 -0.20253702 0.08771937 -0.13104993 -0.1750092 0.09874439
-0.23133504 -0.07907121 0.059873763 0.37040952 0.091957584 -0.37346336 0.10218039 0.1475806
-0.21846215 -0.16986614 -0.16514078 0.28158912 0.19404 -0.02781253 -0.061835084 0.13022202
0.25199363 -0.17245373 -0.13808149 0.06437408 -0.1878306 0.09413404 0.34920323 0.006158355
0.18999122 0.1813024 -0.072387375 0.06969075 -0.06987029 0.019009942 -0.2121181 0.07554898
-0.056902826 0.08771448 -0.09394984 0.10796774 -0.805143 0.08263742 0.18168749 -0.2618813
-0.47300458 0.101986215 0.06554815 0.28074807 -0.02209482 1.0492504 0.118607454 0.29877764
0.2715291 0.23371461 0.16028751 -0.7078382 0.31692544 0.50968874 0.35995647 0.064731374
0.40554607 -0.01811042 0.658334 -0.025046874 -0.10334624 -0.08015979 0.19316505 0.16266501
-0.23282386 0.12343411 -0.09734194 0.3629536 0.0015488121 0.07912715 0.13258393 -0.10652013
-0.5047647 0.30979526 0.042309757 0.17362419 -0.0040300866 -0.03808885 0.100059494 0.5361128
0.59096897 0.073515005 -0.16905375 -0.26071584 -0.13862482 0.47827664 0.08633905 -0.17832059
0.55280095 0.1904622 0.18491553 0.007007046 -0.16117597 -0.34916016 0.14315371 0.048090357
0.070466235 0.04504637 0.09358192 0.22126645 -0.08192585 0.13393223 0.105674766 -0.15993387
-0.42496097 0.26104096 -0.1344583 -0.23529336 -0.1493012 0.14429355 0.027340217 0.47628585
0.46937 0.23751365 -0.33812734 -0.2927275 -0.14149427 0.5268323 0.6498699 -0.24486409
0.35452703 -0.24726187 0.048983816 -0.13165414 -0.29544994 -0.18550205 0.21400343 0.09268531

rnn.weight_ih_l0 f4 [384, 32]
00000000: f8a1 c2bc 5c73 dabd d392 843e 2c1a 043e
00000010: f61d 82bc 944d 54be b6de 363d 319d 863e
00000020: 924a b3ba 52a6 b23e 876a 16bd ff54 663e
00000030: ac90 253e 57f7 a5be 594b 4a3e 2fd9 4cbd
00000040: cbd9 9a3c d989 f9bd bb59 1fbf ea16 763e
00000050: 0525 583e 521b 4d3c f7f3 993e bfc9 c6bd
00000060: afa7 263f cc46 503e ef3a ecbd 9033 7dbb
00000070: 212f 3cbe 4101 0ebf 973d 90bd a2bd 0f3e
00000080: 328a 12be 7b0a f63e 38d6 e3bd d842 2a3e
00000090: 8ab0 a9be 3ccb 473e 4a00 a93e 460b 94be
000000a0: 48ca b33d ef57 8bbd 225c 583e ff8c fd3d
000000b0: a13d 71bd f196 c63c 6f09 8cbd 8197 993e
000000c0: 64f0 833d 2031 613e b415 1a3e ed73 72be
000000d0: 9e36 d33e 9cb2 b83e ac03 7ebe d8f7 893e
000000e0: af59 74be 7f4b 20be e893 fb3d 5a1b d6be
000000f0: 059d 783d 2a39 5e3e 8b4d a43e c5ac 5a3d
00000100: 164a 0c3c 1de2 123f 9bbe 083e a2e3 29be
00000110: efbf 73be 77f5 023f fb55 d7bc 68f2 a13d
00000120: 8723 543e ebe1 053f c799 213e ca79 86be
00000130: 3559 a63d 09f5 193e 305a 083b 1c03 06be
00000140: 526e b8bd 9794 973e 4efc 39be 2f8b 9fbe
00000150: ab5c 9bbc c711 b93e c93a 28be aded 62be
00000160: 4599 31bf d9e0 1d3e 8f55 ddbe 051f 8ebe
00000170: 0184 053d 42b5 393e ebd0 fa3e 5a4c 1dbe
00000180: 55a7 103f 88a1 91bd 9026 2a3e 1a89 253d
00000190: 7c09 ef3e 73b5 ea3b f0f3 f83c 4e78 53be
000001a0: c0aa 193f c975 0cbe 808e 97bc 6fb5 51be
000001b0: 7796 b6bd 507b 76be ad99 cb3d e767 96be
000001c0: 21a4 a4be 7241 c03d 5797 613e 5048 693e
000001d0: 96f6 1c3e 86ae cd3d 4e14 ee3d ce11 f43e
000001e0: 9e96 78be 64c7 10be c88b 193f dd92 59be
000001f0: f882 513e d069 463e b367 433e 621d 13be
00000200: 6743 05bd 88f4 d03e 4a93 2dbe 0511 743d
00000210: 7e78 d8bd fbea b53e ec03 0b3f e626 53be
00000220: d660 41be 25e6 9ebd f481 053d 276c be3c
00000230: f15c 073e 6c85 b1be 6347 9d3e 14d2 e03d
00000240: 7a2c e73e dc3f 7c3e 25f9 fa3d 583a 193e
00000250: 9493 ab3e 5fb1 063f 3c22 b53e 2070 80bd
00000260: bd58 b9be 3f20 6cbd ea29 5e3e 6d12 c3be
00000270: bd6e d5be 0eba 723e c17a c43e 6bcb 37be
00000280: 9b1d 393d 738d 013e 8f54 893e 7a38 993e
00000290: 47d9 de3d a8b3 89be 9e70 babb 7f8b 8ebd
000002a0: e024 40bf 6682 0abf 888e cfbe 56d1 5b3d
000002b0: a7c2 2f3e cec0 b8bd 20d4 7a3e 794b b73e
000002c0: 26a1 8a3e 5180 303e 2e72 cc3e 0e1f 6c3e
000002d0: 1740 53bd f668 573e 6fc7 733f cb40 aabd
000002e0: d573 593e c9d4 13bf 8ac3 473f f349 80be
000002f0: 7969 b9be ac48 503e 7b0b f9bc 8673 753e
00000300: c6c8 fbbe 36dc 54be 1252 7ebe 756d 0a3f
00000310: d332 243f 2ff7 37be a637 dc3e 239c 28bf
00000320: 6035 1d3f e759 7dbe b6c4 66bf 8beb 1f3f
00000330: cc41 613f 58a1 16bf a0b9 173f 5211 9a3e
00000340: 147d a43e 9b6e 233c e6e3 c4be 21d0 073f
00000350: 8303 b33e 06fe 01be d7d3 0abf 0ac6 053f
00000360: 813f b33e db8c b2be 6761 07bf 930c ce3c
00000370: cc9e 49bf 9c34 20be 66c6 53be 7f3d 1b3f
00000380: 094d 2bbf 7b30 da3d cfd4 2abf dec3 b13e
00000390: 88fb 5b3f f7b4 0f3e 9206 373f bf55 4abf
000003a0: 11bf 023f fa92 5fbe 2cf0 2ebf f344 2b3f
000003b0: 1920 cf3e 3fa0 61bf ca10 d93e 752e 4f3f
000003c0: 4899 a13e f50a febd fab5 713e f459 1e3f
000003d0: 13cd 803f 5645 5f3f 118d d9be 7718 863f
000003e0: b4de 453d 3890 c0bd fd16 9f3e 3b2d c8bd
000003f0: 6d5e f6be 345a 2c3d b34a 2a3d 7474 023f
-0.023758873 -0.10666534 0.25893268 0.12900609 -0.015883427 -0.20732719 0.044645987 0.26291803
-0.001367884 0.34892517 -0.036722686 0.22493361 0.16168469 -0.32415268 0.19755305 -0.05001181
0.01890268 -0.121844955 -0.6224629 0.24032179 0.21107872 0.012518721 0.30068943 -0.09706449
0.65099615 0.20339507 -0.11534678 -0.003863547 -0.18377353 -0.55470663 -0.07042997 0.14037183
-0.1431053 0.4805487 -0.11124843 0.16627061 -0.331425 0.19511122 0.33008033 -0.2891485
0.087788165 -0.068038814 0.21128896 0.123804085 -0.058896665 0.024241896 -0.06837737 0.299984
0.06442335 0.21991396 0.15047342 -0.23677035 0.41252607 0.36073768 -0.24806088 0.26946902
-0.23862337 -0.156538 0.1228407 -0.41817743 0.06069662 0.21701494 0.3209041 0.053387422
0.008562585 0.5737627 0.1335396 -0.16590741 -0.23803686 0.511558 -0.026286116 0.079075634
0.20716678 0.5229785 0.15781318 -0.26264793 0.08122484 0.1503488 0.002080571 -0.13087124
-0.09005417 0.29605553 -0.18162653 -0.31160876 -0.018965086 0.36146376 -0.16428675 -0.22160979
-0.69374496 0.15417804 -0.4322934 -0.2775804 0.03259659 0.1813555 0.48987517 -0.15361157
0.5650533 -0.07110888 0.16616273 0.040413953 0.46686924 0.0071627437 0.030389756 -0.20651361
0.6002617 -0.13716806 -0.018500566 -0.20479368 -0.08915418 -0.24070477 0.09941421 -0.29376146
-0.3215647 0.09387483 0.22030388 0.22781491 0.1532844 0.10043053 0.116249666 0.47669834
-0.24276206 -0.14138561 0.59978914 -0.2124743 0.20460117 0.19376302 0.19082527 -0.14366677
-0.032534983 0.40811563 -0.16950718 0.059586544 -0.10569857 0.35530838 0.5430286 -0.20620307
-0.18884596 -0.0775874 0.032594636 0.02324493 0.13219048 -0.34672105 0.30718526 0.10977569
0.4515112 0.24633735 0.12254552 0.14963663 0.3351103 0.52614397 0.3537768 -0.06271386
-0.36200514 -0.05764794 0.21695676 -0.38099995 -0.4168605 0.23703787 0.38374904 -0.17948692
0.04519425 0.12651615 0.26822326 0.299259 0.10881286 -0.2689488 -0.0056896945 -0.069602005
-0.75056267 -0.5410522 -0.4053843 0.053666435 0.17164098 -0.090211496 0.24494982 0.3579977
0.27076072 0.17236449 0.39930862 0.23058721 -0.051574793 0.21036133 0.95226187 -0.083131395
0.21235593 -0.5774656 0.78032744 -0.2505642 -0.36213282 0.20340222 -0.030400982 0.2396985
-0.49176615 -0.20787129 -0.24835995 0.5407327 0.6414005 -0.17965387 0.43011206 -0.65863246
0.6140957 -0.24741326 -0.9014391 0.62468785 0.87991023 -0.5883994 0.59267616 0.3009134
0.32126677 0.009975101 -0.38455123 0.53051955 0.34963617 -0.12694559 -0.5422949 0.5225531
0.35009387 -0.3487309 -0.52883 0.02515248 -0.7875793 -0.15645069 -0.20681152 0.6064071
-0.6691442 0.10653778 -0.6673097 0.34719747 0.8593068 0.14033876 0.714944 -0.7903709
0.51072794 -0.21833411 -0.68335223 0.66902083 0.40454176 -0.8813514 0.42395622 0.8093026
0.31562257 -0.12404434 0.23604575 0.6185601 1.0062584 0.87215173 -0.42490438 1.0476216
0.04830809 -0.094025075 0.31072226 -0.09774252 -0.48118916 0.042078212 0.041575145 0.50958943

rnn.weight_hh_l0 f4 [384, 128]
00000000: 00fa 8dbe 6201 e23c a6b7 db3d 5958 46be
00000010: a43a 08bd 24fb a43d db0c e4bd 36d1 93bd
00000020: 538d 60be cf75 a7bc 9ae2 1e3d c641 7b3d
00000030: cf6f 8fbe 017e cdbe cde0 2ebe 393b 18be
00000040: 0e91 da3d 382b 733e 96c3 b33e eeae e4bd
00000050: b8c0 0e3e 4487 80be 8d00 ebbd 0ded 72be
00000060: 1aff 5bbd d531 223e beb4 223e 300c 8abe
00000070: acc4 003f 0b1e 183f 63fb 243e 1208 9ebc
00000080: 6719 913e 1b93 333e 4aae 40be a15d 98be
00000090: b202 2fbe 5010 923e 6ce4 08bd 9380 c4be
000000a0: 5c0d f13d 87d2 b6be 9f28 133e 1552 853e
000000b0: 691e 6b3e 462e 7f3e 70f4 ebbe a733 933d
000000c0: 6287 38be 0d20 03bf a712 0fbd c1fd bd3e
000000d0: 96d6 aebe 1030 f63d abdf 113e 82ab 313e
000000e0: 332b 63bd 9c02 47be e14c c0bc 6030 b43d
000000f0: d9b5 943e cdc4 13be 3c73 68bd 4c89 59be
00000100: cefe a7bd fb7f 9b3e c7d0 913e d611 a0be
00000110: 7e71 8bbd 4895 223e cc71 aebd f4b2 17be
00000120: 82ad b13e d4e0 1b3e 3083 59be 7505 a03d
00000130: 28b7 413e 6c8c 573d a34c f13c 7d1d 053e
00000140: 43cb 8e3e 6e22 fdbe 9934 92be fa80 583e
00000150: 5f5f f53d a04b 8fbd de82 52bd 62b1 143e
00000160: a53a 733e 57f0 303e 77c8 20be 92e0 66be
00000170: cc8e 5bbe 678d c63e 721c 9f3d bf16 8c3e
00000180: 4198 c6be 67b7 9a3e faaf 25be 66ea e13c
00000190: 44bb a8be 61b1 4a3e f640 3c3e 3220 1dbd
000001a0: 79ca ab3e 4a0b 923d a3e1 8cbe a1b7 1ebe
000001b0: ec20 6e3e eb2d e13d fe3f 013e f7ce 0b3f
000001c0: 85fd 25bd 5355 843e 6488 0c3e 6da8 15bd
000001d0: 54ba 633e 308d 90bd ed27 933e a13a c3be
000001e0: c152 59be 278a 56be d8d2 f8bd ae2d 9fbe
000001f0: 8cd6 193e dd83 3d3e 4c62 043d 72a9 943e
00000200: bb1c 0ebf 8c89 8dbe b06b 99be dcd6 89be
00000210: 5766 203e e2eb 983e 1bab b43e cd57 983e
00000220: 9c9b b1be 8550 7abb bc29 b73c ca30 443d
00000230: 78ec 06bf 7145 44bf ec1c e73d a1f6 ae3e
00000240: 1e14 bf3e 03af 263e 748b 603e 9c7a 8dbe
00000250: 6504 d03d a260 003d 6e36 02be 77e8 f5be
00000260: e6be 0ebf 8f38 f33d 356e ba3e bc83 2dbf
00000270: 6f0d 033e 4c52 b3bd 3963 b23c ca9b febc
00000280: 82be c63e fe21 243f 7dec c13c 888b 64be
00000290: 8458 ec3e a611 043f e98f 173e f1c9 71be
000002a0: c06b 1abd cde5 9abe 66ee bcbd 7c31 e63e
000002b0: 9ffb b43d 2fc2 e03e 811f e9bd 8842 3cbe
000002c0: 6f9d 0bbf a1b1 5ebb 9932 6fbd 1e69 1b3f
000002d0: d222 86bd da70 ac3e b6b1 853e 1ff5 083e
000002e0: 098a 96bd a0fe 1abd ef90 c4bd 3fa4 c83d
000002f0: 23cc 2a3f fa37 05be ae61 9fbe 9e75 bebe
00000300: 4aa3 d6bd 2cbf 293f 5a57 96be 19c3 87be
00000310: 9561 bdbc e166 443d ee9e 2dbe 4a65 0cbf
00000320: a97a b63e e11d 913e 1e39 80bd feeb a8bc
00000330: 5bed 493e 56aa 963e 335c 1a3d 6547 933e
00000340: b353 c33e deb2 eabe 50b6 72be 8972 ab3e
00000350: 1236 c43e a23c 96be ef5e 073c 273b aa3e
00000360: 8d63 aabd 5d0b 4a3e 4c6e 5fbe ff6b 9abe
00000370: ebff 67bd c232 8c3e d2e9 e03e eed0 933e
00000380: 23c3 a5be 79c1 52be 4e9a 41be 1385 b9be
00000390: 9c9b 03be d4f2 c03e 2957 5fbd 1d9c 9fb9
000003a0: 6da1 90bd 3365 f83d 5c32 b3be 7d75 813d
000003b0: 7794 0c3f 7356 2f3e 79fe b73d 3e11 c0bd
000003c0: ee0a 35be 523f 253e c9b2 103f 5de5 06be
000003d0: be9b b93e 1e57 a1bd 8e45 b33c 9ac9 b1be
000003e0: 4b59 66be 0fc1 733c f173 78be 2de2 9abe
000003f0: 930e 9f3e a414 acbd e4fd 973e df7b cc3e
-0.27729797 0.02758855 0.107283875 -0.1936964 -0.03325905 0.08055714 -0.111352645 -0.07217638
-0.21928911 -0.020441918 0.038790323 0.061342023 -0.2801499 -0.40135196 -0.17077942 -0.14866342
0.10672198 0.23746955 0.35110158 -0.11166178 0.13940704 -0.251032 -0.114747144 -0.2372324
-0.05371008 0.15839322 0.1588926 -0.26962423 0.503001 0.5942084 0.16111521 -0.019290958
0.28339693 0.17536585 -0.18816486 -0.29758933 -0.17090872 0.2852807 -0.033420965 -0.38379344
0.11770126 -0.35707495 0.14370964 0.26039186 0.2296082 0.24919996 -0.4608493 0.07187586
-0.18020394 -0.5122078 -0.034929898 0.3710766 -0.3414809 0.12020886 0.14245479 0.17350581
-0.05546112 -0.19434589 -0.023474159 0.08798289 0.2904499 -0.14430542 -0.05675052 -0.21243781
-0.08202897 0.3037108 0.28479597 -0.31263608 -0.06808756 0.15877259 -0.08517799 -0.14814359
0.34702688 0.15222484 -0.2124145 0.07813541 0.18917525 0.05262415 0.029455489 0.1299953
0.2788945 -0.4944033 -0.28555754 0.2114295 0.11981081 -0.06996846 -0.051394336 0.14520791
0.2375284 0.17279182 -0.15701471 -0.22546604 -0.21441191 0.38779756 0.077690974 0.27361104
-0.38788036 0.3021805 -0.16180411 0.02757759 -0.32955372 0.19794227 0.18384156 -0.038360782
0.33552912 0.071310595 -0.27515897 -0.15499736 0.23254746 0.10995086 0.12622067 0.5461268
-0.04052498 0.25846347 0.13723904 -0.036537576 0.22239047 -0.070581794 0.28741398 -0.38130668
-0.21222974 -0.20951138 -0.1214959 -0.31089538 0.1502325 0.18507333 0.032320306 0.29035527
-0.5551259 -0.27644002 -0.29964972 -0.26921737 0.1566404 0.29867464 0.35286793 0.29754487
-0.34689033 -0.0038194966 0.022358768 0.04789809 -0.5270457 -0.7666846 0.11284813 0.34172538
0.37320036 0.16277699 0.21928197 -0.27632606 0.10157088 0.031342156 -0.12716076 -0.4802892
-0.5576004 0.11876022 0.36412206 -0.67779136 0.12798093 -0.08755931 0.021775829 -0.031080145
0.3881722 0.6411437 0.023672337 -0.22318852 0.46161282 0.5158943 0.14800991 -0.23612191
-0.037700415 -0.3025345 -0.092251584 0.4495963 0.088370554 0.4389815 -0.11382962 -0.18384755
-0.545371 -0.0033980387 -0.058397863 0.6070727 -0.0654961 0.3367985 0.26112145 0.13374756
-0.07350547 -0.037840486 -0.095979564 0.097969525 0.6671774 -0.13009635 -0.3112921 -0.3719911
-0.10480364 0.6630733 -0.2936352 -0.26516035 -0.02311782 0.047949675 -0.16955158 -0.54842055
0.35640457 0.28343108 -0.06260894 -0.020620342 0.1971945 0.2942683 0.037685584 0.28765407
0.38149795 -0.4583959 -0.23702359 0.3348582 0.38322502 -0.29343134 0.00826238 0.33248255
-0.08319769 0.19730897 -0.21819419 -0.3016052 -0.056640547 0.27382475 0.4392839 0.28870338
-0.3237544 -0.20581616 -0.18906519 -0.3623434 -0.12852329 0.37685263 -0.05452648 -0.00030443157
-0.070620395 0.12128677 -0.3499936 0.06321237 0.5491404 0.17122822 0.08984084 -0.09378289
-0.1767995 0.16137436 0.56522804 -0.13173433 0.36251634 -0.078779444 0.021883752 -0.34724122
-0.22495 0.014877572 -0.24262978 -0.30250683 0.31065807 -0.084023744 0.2968589 0.39938256

rnn.bias_ih_l0 f4 [384]
00000000: b41b f53e 64ad 643e 3f6f 91be c8bf ecbe
00000010: 44e4 53be fc91 0bbf 3443 11bf c8a6 fcbe
00000020: 3e79 33bf 0fbb b9be 5bb8 eabe 8abf c2bd
00000030: e141 853e 5215 673e b4a5 933e 1724 66be
00000040: 9ab5 b0be 2512 cdbe dda4 94be 62d6 29bd
00000050: 6c21 16bf 5373 843d 6a9d e63e f1b3 ff3e
00000060: d852 7fbf f57e c03c 951d cf3e 2d21 08be
00000070: 4d21 13be b24b 383d dcb3 053e 1416 cabe
00000080: 8db9 dfbd dbc6 f5be 5c40 b0be a0b6 32be
00000090: 2812 0c3c 7c8e 8dbe d804 60bd 23ec 14bf
000000a0: a422 f0be 1043 993c 75e2 7c3d cff6 913c
000000b0: 1cb4 543e 858a bfbe 73da 03bf 65df 9f3e
000000c0: f81b 943c 5ed9 96be 030a b0be d327 bbbc
000000d0: 245c d23e d266 abbe 81d4 2ebf 6645 17bf
000000e0: 40c0 06bf 562a 1bbf 3998 eebe 33b7 edbe
000000f0: 7945 1ebf 8dee 673c bf4c 66bf 2ffd 1fbf
00000100: c5c2 03bf 4b07 e53b 405e 44be 31fa 5c3e
00000110: f6fe 55bf 0494 d2be 6da6 31be 4494 aebe
00000120: 5db4 8dbe 8ceb 18be 6fdd 693e 2c73 963e
00000130: 1aef 2bbf 48e7 6a3e 394b 61be 94d5 a4be
00000140: 575d a5be 2820 59bf 9086 e83d d662 71be
00000150: b690 00bf 5458 72bf ff6a 2cbd ef5b 68be
00000160: bf53 4e3d 7267 e7be 2351 acbe 21e2 d0be
00000170: f676 a8bd 720d fbbe 8900 0cbf 5f21 9cbc
00000180: e159 a1bd 4353 473d db4e 02bf 46f7 d23e
00000190: 866a 45bf e816 be3d 33aa 213f bbf2 02be
000001a0: 0bdc e2be 2767 b3be 3c24 a4bd 7db9 9ebd
000001b0: bff1 b8be 1bda e23e efaf c13e e949 57be
000001c0: 561d 4dbf 50bb f03d 1ecf e33d 7b92 993e
000001d0: dd5b 0f3e c678 c03d 892f 23bf 376b e7be
000001e0: 924f 3cbf c3f1 4cbf cbd1 eb3d 6d81 48be
000001f0: 5a31 2cbe a144 c03c fcb5 04bf e6f0 5cbe
00000200: 1620 13bf 0adf d63e 3d28 7ebe 586e 043f
00000210: 1ac3 c93e c891 803d cad8 9a3f 6b2b 9dbe
00000220: 5087 873f b3e5 423f e72d 9bbe e76c 0cbe
00000230: 0139 0dbc 42bd 64be 68bc 54be 4f0c 283f
00000240: e7e8 8c3e 1471 813f 1a49 2b3f 98cf 023e
00000250: ae76 483f 0c0e c73d dbc8 893c 080e 14bf
00000260: 023f c13e b15e 833d 01cf dcbe 6e37 e33e
00000270: a601 893f d2c7 123f 219e b33e b5ce 6fbe
00000280: b495 363d cc06 533e 23d9 4cbd a05e 3b3f
00000290: 783a 8bbf d1bd 443f eb21 3f3f c869 083f
000002a0: 52b1 c13d 9f77 fa3e a6c0 95be aa10 533f
000002b0: f016 1e3e 8aef 51be 2a8a 6b3e dc88 80bf
000002c0: 63cc e13e f8f3 a7be 9406 493f 46eb ba3e
000002d0: ed0a 703e b8ef 94be 13a9 393f c03e 1a3f
000002e0: 5115 483f 4780 713f f7a2 aa3e dcf7 4f3f
000002f0: bca8 81be ef0e 3abf 1a5b f83e 8198 5d3f
00000300: 1d07 df3e 2106 933f c416 123f 7fb2 013f
00000310: d096 513f bc71 b83d 968c 343f 702d 833f
00000320: 2308 e23e ee2d 103f 6c8e b9be ff1d d53e
00000330: 9956 c73e a71b ae3f cd61 3fbf bd35 f33e
00000340: 3359 233f 71b7 2a3f 0867 343f 600b c73e
00000350: 6239 eabe e816 1a3f 19f9 aa3e b398 9c3f
00000360: 4e09 52bd 2c11 f23e 16e5 e13e 607f afbb
00000370: fc5f 893e df79 123f d71f 05bf 4b44 d43e
00000380: d466 7d3f b3a9 c9be d362 da3e 5312 253f
00000390: 1165 3f3f df7f 37be 7bd5 93be 61c3 6ebe
000003a0: 38e8 1ebf f962 fe3d 7abf 17bd 54f4 8abe
000003b0: 9aba f63e ec64 22bf a57f 06bf 1b9b 6ebe
000003c0: ed51 8a3f e026 843f a39d b1be 1232 28be
000003d0: 26eb d43e cf60 9dbd 3693 52bc 4a9f d23d
000003e0: 8410 353e 1292 ed3c 4031 683e aad7 11bf
000003f0: 0e72 773f 94a2 d93e b2a8 973c 426d 0e3f
0.47872698 0.22331768 -0.28405187 -0.46240067 -0.20692545 -0.5451963 -0.5674317 -0.49345994
-0.70106876 -0.36275527 -0.45843777 -0.095091894 0.26026824 0.22566727 0.2883736 -0.22474705
-0.3451355 -0.40052906 -0.2903203 -0.041464217 -0.5864475 0.06467309 0.45041972 0.49941972
-0.99735785 0.023498038 0.40452257 -0.13293906 -0.14368172 0.044994064 0.13056892 -0.3946997
-0.10924063 -0.48003277 -0.34424102 -0.17452478 0.008549251 -0.2764777 -0.05469212 -0.58172816
-0.4690143 0.018708736 0.061739404 0.017817883 0.20771831 -0.3741037 -0.515052 0.31225124
0.018079743 -0.29462713 -0.34382638 -0.022846138 0.41085923 -0.33476883 -0.68293005 -0.5909027
-0.526371 -0.60611475 -0.46600512 -0.46428832 -0.61824757 0.014155996 -0.89960855 -0.624957
-0.5146907 0.006989395 -0.19176579 0.21579815 -0.83592165 -0.41128552 -0.17348643 -0.34097493
-0.2767667 -0.14933604 0.22838376 0.29384744 -0.67161715 0.2293979 -0.22001351 -0.32194197
-0.32297775 -0.8481469 0.11353791 -0.23572859 -0.5022081 -0.9466603 -0.042094227 -0.2269132
0.050372835 -0.4519611 -0.33655652 -0.40797523 -0.08225815 -0.49033695 -0.54688317 -0.019058881
-0.07878471 0.04866339 -0.50901574 0.4120428 -0.77115667 0.09281713 0.6315033 -0.12787907
-0.44308504 -0.35039636 -0.08014724 -0.07750223 -0.36121938 0.44307026 0.3782954 -0.21024288
-0.8012289 0.11754477 0.11123489 0.29994568 0.13999887 0.09398036 -0.6374441 -0.45198986
-0.73558915 -0.800564 0.11514624 -0.19580622 -0.16815701 0.023470225 -0.51840186 -0.2157627
-0.57470834 0.4196704 -0.24820037 0.5173087 0.39406663 0.062778056 1.2097409 -0.30697188
1.0588169 0.76131743 -0.30308458 -0.13713418 -0.008619548 -0.22337821 -0.20774996 0.6564378
0.2752144 1.0112634 0.6690842 0.12774503 0.7830609 0.09719476 0.016819408 -0.5783391
0.37743384 0.06414545 -0.4312668 0.44378227 1.0703628 0.5733615 0.3508158 -0.23418696
0.04457636 0.20608062 -0.050011765 0.7319126 -1.0877218 0.76852137 0.7466113 0.5328641
0.09457649 0.4891939 -0.29248542 0.824473 0.15438437 -0.20501533 0.23001924 -1.0041766
0.44101247 -0.3280332 0.7852566 0.36507624 0.23441668 -0.2908914 0.7252361 0.60252
0.78157526 0.9433636 0.33327457 0.8123758 -0.25324047 -0.72679037 0.48507005 0.8656083
0.43560115 1.1486245 0.5706599 0.5066299 0.81870747 0.09006068 0.7052702 1.0248241
0.44146833 0.56320083 -0.36241472 0.41624448 0.38933256 1.3602189 -0.7475861 0.47501937
0.6380798 0.6668616 0.70469713 0.38875866 -0.45746905 0.601912 0.3339317 1.22341
-0.051278405 0.47278726 0.4412009 -0.0053557605 0.26831043 0.5721721 -0.5200171 0.41458353
0.9898503 -0.39387283 0.42653522 0.64481086 0.7476359 -0.17919873 -0.2887381 -0.23316719
-0.6207309 0.12421221 -0.03704784 -0.27139533 0.4818924 -0.63435245 -0.5253852 -0.23301356
1.0806252 1.0324364 -0.3469058 -0.1642535 0.41585654 -0.076844804 -0.012852481 0.10284288
0.17682081 0.029000316 0.22675037 -0.569697 0.9665841 0.4250685 0.018513057 0.55635464

rnn.bias_hh_l0 f4 [384]
00000000: fbd3 f83e e75a 7c3e 024b 92be 66d5 e6be
00000010: 44bb 47be a08e 07bf 94c8 13bf 0dbd febe
00000020: cdac 35bf 5b90 b9be 34c7 eabe f6c8 d9bd
00000030: b233 903e d6ff 603e 013f 913e 7a93 6ebe
00000040: 7de9 a7be 857c d3be 8085 a1be 0627 25bd
00000050: 2d39 15bf b424 953d 4086 da3e f31b 063f
00000060: 432b 82bf 177c 223d f3d3 d13e 1372 d9bd
00000070: a18b 14be b4cc 0f3c a8b2 003e 3585 bfbe
00000080: 391a f5bd 21cb fdbe e316 bdbe 0ffb 37be
00000090: c122 6d3b ca2a 8ebe 2db4 c6bc 4ec8 15bf
000000a0: 8dd8 efbe 6a37 a33c 6b09 663d 66c2 363b
000000b0: 1e2d 6c3e 7aa0 bebe f86a 02bf 89ec 983e
000000c0: 1080 0c3c 2cd5 99be 8a61 abbe bca9 a8bc
000000d0: 12a3 ca3e f552 a8be f046 2abf 865b 14bf
000000e0: e29d 03bf bb37 21bf a134 eabe 6bf0 f4be
000000f0: 7706 26bf c4ca 72bc d0f9 68bf edc4 20bf
00000100: 81f3 02bf 79f4 b73c cf24 38be 22fc 473e
00000110: 7f10 53bf 866f d7be 3682 20be de92 b6be
00000120: 0385 87be 58f3 f7bd 1145 6b3e 36e6 963e
00000130: 19de 29bf a867 6f3e 1f52 75be c5e2 94be
00000140: c172 b4be d2d9 56bf 800c 063e e66c 6dbe
00000150: 2217 01bf 395c 6fbf 3532 4fbc 4469 7ebe
00000160: dce0 533d 4a91 e8be d944 a2be 3ea4 d1be
00000170: 56d6 95bd 9e8a 00bf a613 0ebf bbb3 82bc
00000180: 37b0 debd 2480 423d be58 00bf a325 d23e
00000190: 1a66 49bf a7dc cc3d 946a 253f 2d96 fabd
000001a0: 5e0c efbe 253c afbe 3d38 9cbd d2c7 bcbd
000001b0: 92ed b9be 3fb2 df3e 60ff c63e 74e1 4ebe
000001c0: b570 4dbf 3b1f 003e cdfc de3d d36c 993e
000001d0: ad8c 1f3e 09da ae3d e9e7 24bf cefc e3be
000001e0: a541 3dbf 911c 4fbf c622 ed3d 5113 67be
000001f0: 4e5b 39be 5b43 a53b 4f05 05bf e466 6abe
00000200: 1fc0 0ebf 93ea cb3e 8421 6dbe 31c9 063f
00000210: 326b dc3e f4d9 3b3d b285 983f 6454 a5be
00000220: 6b61 883f 5586 413f 4889 94be fcb0 09be
00000230: ff22 16bc 3270 6bbe 170b 4ebe b3bc 2e3f
00000240: a41c 913e 5a83 803f f88b 293f aaa0 023e
00000250: 2eb3 433f 0c9e aa3d 03b1 6eba 55c4 17bf
00000260: daff bf3e 7fe2 903d 1e7c d3be 2ae1 e33e
00000270: 1677 873f 40f3 103f 9bd6 b93e 59d0 6bbe
00000280: ad29 3f3d 42a9 5e3e b3af 54bd 0fa8 373f
00000290: 4c88 8cbf 4aae 423f d35a 423f 1554 073f
000002a0: b7bc 9d3d 418f fa3e d9e9 92be 4d76 553f
000002b0: 0af3 183e 2d56 3ebe 0e08 6b3e fb35 7cbf
000002c0: 3aa3 e13e 2917 a5be 6448 4c3f f9d2 bf3e
000002d0: c948 643e 3269 93be 5d09 3a3f 4d46 1f3f
000002e0: f550 433f f183 6e3f e39e a43e acc4 4f3f
000002f0: 1ac2 7fbe 57c8 37bf 640c fa3e 1e8e 583f
00000300: afbf d93e 0418 943f 257b 103f 1217 023f
00000310: 07b3 4c3f 8199 d33d b824 363f 8676 803f
00000320: ac9b e33e 87ae 123f b97c b7be 00fb d83e
00000330: 341b ca3e bd42 ae3f edca 41bf 128a f03e
00000340: f523 293f 6f40 2c3f 90c4 353f 6ef1 ba3e
00000350: 7ae2 e5be a77d 1b3f 57fc aa3e 4f7d 9b3f
00000360: af38 6cbd 7e70 f23e bdcf de3e 0965 c53b
00000370: cd03 843e 0fc8 173f f194 05bf 8804 de3e
00000380: a8e6 803f 5ab7 d1be fa52 de3e 90b3 2e3f
00000390: b18f 473f 8b92 3ebe bad0 96be 934b 6fbe
000003a0: 1d66 25bf 9cc1 fa3d e2b8 8ebb c5d9 8cbe
000003b0: 33a9 fe3e 0542 28bf 6cf7 01bf 6f7b 7abe
000003c0: cfa1 893f 18da 843f 917f b6be 954a 04be
000003d0: 5699 d63e 3850 aebd 8ef2 cabc e7d0 ea3d
000003e0: e9ac 433e 0438 ce3c 37b4 6e3e 41d9 13bf
000003f0: bc00 753f 5be3 d33e c6e3 ac3c 8f30 103f
0.48599228 0.24644051 -0.2857285 -0.45084685 -0.1950503 -0.52952003 -0.5772793 -0.4975361
-0.709668 -0.36242947 -0.45855105 -0.106340334 0.2816444 0.21972594 0.2836838 -0.23298445
-0.32795325 -0.41305938 -0.31547165 -0.04032042 -0.5829037 0.07282391 0.4268055 0.523864
-1.0169452 0.039669123 0.40982017 -0.10617461 -0.14506389 0.008776832 0.12568152 -0.37406316
-0.11967892 -0.49569038 -0.36931524 -0.17966865 0.0036184045 -0.2776702 -0.024255836 -0.58508766
-0.46844903 0.019923884 0.056161325 0.0027886867 0.23064086 -0.3723181 -0.5094447 0.29867962
0.008575454 -0.3004545 -0.33472854 -0.020588748 0.39577538 -0.3287579 -0.6651449 -0.57952154
-0.51412785 -0.6297566 -0.45743278 -0.47839674 -0.64853615 -0.014818851 -0.91006184 -0.62800485
-0.5115281 0.02245544 -0.17982791 0.19529775 -0.82447046 -0.42077273 -0.15674672 -0.35658926
-0.26468667 -0.12106961 0.22975565 0.29472512 -0.6635452 0.23379385 -0.23957108 -0.2907926
-0.352438 -0.8392612 0.13090706 -0.23186073 -0.5042592 -0.93500096 -0.012646248 -0.24844843
0.051728114 -0.45423347 -0.31693152 -0.4094562 -0.07316272 -0.50211513 -0.5549873 -0.015954843
-0.10873454 0.047485486 -0.5013541 0.4104434 -0.7867142 0.100030236 0.6461575 -0.12235675
-0.46689123 -0.34225574 -0.07627914 -0.092178 -0.36314064 0.43690678 0.3886671 -0.20203191
-0.802501 0.12511913 0.10888062 0.2996584 0.15581007 0.08537681 -0.64416367 -0.44528812
-0.7392829 -0.80902964 0.11578898 -0.22565962 -0.18101236 0.00504343 -0.51961225 -0.22890812
-0.55761904 0.39827403 -0.23157316 0.52650744 0.43050534 0.045862153 1.19158 -0.32290947
1.065473 0.755956 -0.29010987 -0.1344642 -0.009163617 -0.22992018 -0.20121418 0.6825668
0.28342164 1.0040085 0.662292 0.12756601 0.7644528 0.08330926 -0.00091053563 -0.59283954
0.37499887 0.07074451 -0.4130563 0.44507724 1.0583217 0.5662117 0.36296543 -0.23028697
0.046670604 0.21744254 -0.051925372 0.7174081 -1.0979095 0.76047194 0.75919837 0.52862674
0.0770201 0.4893742 -0.28694037 0.8338364 0.14936462 -0.18587561 0.22952291 -0.9851987
0.44069844 -0.32244232 0.7979796 0.37465647 0.2229339 -0.28791195 0.7267054 0.62216645
0.76295406 0.93170077 0.3215247 0.8115947 -0.24976388 -0.7179007 0.48837578 0.84591854
0.42529055 1.1569829 0.56437904 0.5081645 0.79960674 0.10332013 0.7114978 1.003617
0.44454706 0.5729756 -0.35837343 0.42378998 0.3947388 1.3614117 -0.75700265 0.4698034
0.6607049 0.6728582 0.71003056 0.3651232 -0.4489935 0.60738605 0.33395645 1.2147616
-0.057671245 0.4735145 0.43517867 0.006024007 0.2578415 0.5928964 -0.5218039 0.43362832
1.0070391 -0.409602 0.4342268 0.6824274 0.7795363 -0.18610589 -0.2945612 -0.23368673
-0.6460894 0.12243959 -0.004355536 -0.27509895 0.49738464 -0.6572574 -0.5076816 -0.24461149
1.0752505 1.0379057 -0.356442 -0.12919076 0.4191386 -0.08511394 -0.024773862 0.11465626
0.19108929 0.025173195 0.23310934 -0.5775338 0.95704246 0.41384396 0.021104705 0.56324095

linear1.weight f4 [2, 128]
00000000: baf9 4bbd 1f75 18bd 8d35 3f3d 68eb ab3d
00000010: 541a 563c 4acf 033e 9c3b 3d3c d5fb 20bd
00000020: b85e 6abc 1bbc e53d fb52 deba aa9f e23d
00000030: 9592 e23c 45d0 93bc 8fca b23c 0b58 ca3c
00000040: c7bf 81bc 4af1 bc3d 6dd8 903d 3428 f53b
00000050: d41e d43d 74bf 67bd 6920 103e 40b5 56bc
00000060: f041 eabd 5534 19bd f26f 8c3d 9cbd 893d
00000070: 3c5c 9f3e f75d 44bd 7a9b 71bd 1452 05bd
00000080: 3d85 1d3e febc 043d 04a5 783d 289a d63d
00000090: 4287 d53a 4ca6 aa3d 3b60 98be 21d2 f03d
000000a0: 141a a9bd 61d4 853d bc25 d03d 0c89 913c
000000b0: d9b5 2e3c 990c 373d a00b adbc 111c 583b
000000c0: 8048 6a3c 87c2 50bc 876d 6e3e aa8e 09bc
000000d0: d89d 2b3d 15ad b63d 5318 9bbb e283 833a
000000e0: 8c5a 0fbd 3ce9 b3bd c2c8 adbd 9342 6bbe
000000f0: 046e c83c 803b a13c d200 653e 6b5a e73c
00000100: fbd3 173d 8c9b 723e e0cb 65bd abc5 2a3e
00000110: 8085 26be b9bc 8ebb 769a b4bd a85b cfbb
00000120: c5ab a239 0dc4 8ebe d54f b33c 03f3 093e
00000130: 6b77 e9bd 12c9 543e 527d 393b 69e9 88ba
00000140: 6547 09bd 644f d4bd 5230 813d e5da 70bc
00000150: 2dde aabb f3ea 39bd 179e 98bc 48a1 49bd
00000160: b551 cd3d d85c eebd e173 b6bc db20 1dbd
00000170: a1d5 163d d1fd 503e cd71 7cbd 52ec 44bd
00000180: c7fa 8b3d 8b40 0a3d eb4b 82bd 2c61 cb3c
00000190: f9d8 763d 661a 633c e08e b5bc 3cdb 3fbc
000001a0: 2b3f 18bd 4026 a23d 68c2 323a 32df 993d
000001b0: 700a 203d e7a7 1abb d5c0 113d 8a0c 79bb
000001c0: cb6c 27bb 996e 79be fd8f f53b e405 ba3d
000001d0: e99b 173d 31a7 54bc c3d1 683c 4027 db3d
000001e0: 520c dfbc c642 69bc 4d0f 5ebd ff97 1fbd
000001f0: 0645 0cbd 397a c8bc 3877 23be 59cd 4c3d
00000200: 8f7c 493d 81ab f63c 3579 12bd 65da 96bd
00000210: d43e 9cbb a41e 14be 76a3 1abc bd55 f53c
00000220: 0bac b23c 2d03 09be a6c3 a3bc 8f43 b6bd
00000230: 0ccb aabc b76f af3c eb9d 53bc 70a5 59bd
00000240: 3bda eab8 e645 e1bd a5e0 9fbd d2d0 eabc
00000250: 1032 eabd f7a0 193d 1997 09be f0d5 383c
00000260: f846 fa3d 5d27 003d d5a7 27bd f94f 8abd
00000270: 4bf7 9cbe a59a 5d3d 264b a33d c4c4 0a3d
00000280: 3ceb 1cbe 1b31 c6bc aeea 9ebd 58ae d8bd
00000290: 93c3 c7bb d1b5 b4bd 8275 953e f96f ffbd
000002a0: 9efb 913d 7cac 74bd 06fd a7bd 3a6d 34bc
000002b0: a571 41bc 4068 76bd a06b 9b3c 537f 8ebc
000002c0: ac6f a8bc baf1 983b 4d58 6fbe 3b1c a23c
000002d0: 4371 58bd 2647 d9bd 5035 5abc 13a5 ac3b
000002e0: daa9 2a3d f9a0 c03d d77d 733d 316b 6a3e
000002f0: 3f2f 5cbc 390e 13bd 426d 5cbe 41a1 ddbc
00000300: 03a2 c2bc 1d85 77be d300 4b3d c7f1 1ebe
00000310: f173 253e 36bc 08bc 1df4 6c3d 9ca2 313b
00000320: 0b01 b9bc 768f 963e 346c 99bc 3397 13be
00000330: 63b1 ca3d 939f 46be d4b2 583c 5836 87bb
00000340: 435a f53c 4289 d73d bd0b 74bd 793b 57bb
00000350: 4a86 a23c e462 4c3d fef1 183d e2fd 3c3d
00000360: 16b5 bbbd cb70 f23d 7dd2 7c3c 8433 b43c
00000370: 6610 aabc 17db 48be 9b2a 503d c52e 4f3d
00000380: e173 90bd 8bb3 dfbc c07e 2e3d acb6 14bc
00000390: 58d8 64bd 110f 9c3c e8c8 673d f940 75bc
000003a0: 3930 0a3d 0ec3 7ebd b0c9 87bc 70a2 9fbd
000003b0: 5c0e 20bd 3a69 5d3b 7318 c3bc ea20 c4b8
000003c0: 2941 2b3a 9c4b 683e 085b 2abc 895b cabd
000003d0: c328 d2bc 39b6 093c 53a6 e9bc 3899 b9bd
000003e0: 0e2c b03c 6e32 8e3b 9292 903d accd f93c
000003f0: 445f 103d 621d a73c 61a9 3b3e 966c 67bd
-0.049798705 -0.03722107 0.04668193 0.083945096 0.013067801 0.12872043 0.0115498565 -0.039302666
-0.014304809 0.11217519 -0.0016961986 0.1106561 0.027657786 -0.018043647 0.021825103 0.024700185
-0.015838517 0.0922571 0.0707253 0.007481599 0.103574425 -0.05657907 0.14074863 -0.013104737
-0.11438358 -0.037403423 0.068572894 0.06725618 0.31125057 -0.047941174 -0.058986165 -0.03254898
0.15382858 0.0324068 0.060704246 0.10478622 0.001629092 0.083325 -0.29760918 0.11758829
-0.08256927 0.06534649 0.10163447 0.017765544 0.010663473 0.04468975 -0.021123707 0.0032975713
0.014299512 -0.012741691 0.23283969 -0.00839583 0.04189858 0.089197315 -0.0047331243 0.0010033811
-0.03499846 -0.0878472 -0.08485557 -0.22974615 0.024466522 0.019681692 0.22363594 0.028241357
0.037067395 0.23692149 -0.056102633 0.16676967 -0.16261864 -0.0043559936 -0.088185236 -0.006328065
0.00031027026 -0.2788395 0.021888653 0.13471608 -0.1139973 0.20779827 0.0028303456 -0.0010445538
-0.033515353 -0.10366705 0.063080445 -0.014700626 -0.0052144737 -0.04539008 -0.01863007 -0.049226075
0.1002535 -0.11638802 -0.022272052 -0.03836141 0.036824826 0.20409323 -0.061631966 -0.048076935
0.06834941 0.03375296 -0.063621365 0.024826609 0.060265515 0.013861274 -0.022162855 -0.011709984
-0.037169617 0.07917452 0.000681913 0.07513274 0.039072454 -0.0023598613 0.03558429 -0.0038001859
-0.0025547023 -0.24358596 0.0074939714 0.09083155 0.037013922 -0.012979315 0.014210167 0.10700846
-0.027227554 -0.014237111 -0.05421381 -0.038963314 -0.034245513 -0.024472343 -0.15963447 0.050000522
0.049191054 0.030111076 -0.035760123 -0.07365874 -0.004768232 -0.14464813 -0.009438386 0.02994811
0.021810552 -0.13380118 -0.019990753 -0.088996045 -0.020848773 0.021415574 -0.012916069 -0.05313629
-0.00011198638 -0.1099966 -0.078065194 -0.028664026 -0.1143533 0.037507024 -0.13436545 0.011281475
0.122205675 0.03128754 -0.04093154 -0.06753535 -0.3065742 0.05410256 0.07973318 0.033879057
-0.1532411 -0.024193337 -0.07759605 -0.105801284 -0.0060963123 -0.08823741 0.29191214 -0.12472529
0.0712807 -0.059734806 -0.08202557 -0.01101237 -0.01180688 -0.060158014 0.018972218 -0.017394697
-0.020561062 0.004667488 -0.23373528 0.019788852 -0.05284239 -0.106092736 -0.013318375 0.005268702
0.04166589 0.09405703 0.059446182 0.22892453 -0.013438999 -0.035902236 -0.21526054 -0.02705443
-0.023758894 -0.24171872 0.049561333 -0.15521918 0.1615751 -0.008345654 0.057849992 0.002710498
-0.022583505 0.29406327 -0.018728353 -0.14413147 0.09897115 -0.1939681 0.01322623 -0.0041263513
0.029950267 0.10524227 -0.059581507 -0.0032841845 0.019839425 0.049898997 0.037340157 0.04614056
-0.09165399 0.1183792 0.015431044 0.02199722 -0.020759773 -0.19614826 0.05082188 0.050581712
-0.07053352 -0.027307292 0.042601347 -0.0090767555 -0.055870384 0.019050153 0.056588084 -0.014969104
0.033737395 -0.062197737 -0.016575664 -0.07794654 -0.039076194 0.0033784644 -0.02381537 -9.352139e-05
0.0006532842 0.22685093 -0.01039768 -0.0988074 -0.025654202 0.008405262 -0.028521692 -0.09062427
0.021505382 0.004339508 0.07059206 0.03049358 0.035247102 0.020399753 0.18326332 -0.05650004

linear1.bias f4 [2]
00000000: 3cf8 dabd 97f2 c63d
-0.10691878 0.09714239
